…
[2024-04-03 04:01:28][WARNING][__main__:88] - Output dir: /home/btrungvo/wordplay/src/outputs/runs/shakespeare/pytorch/DDP/2024-04-03/04-01-23
[2024-04-03 04:01:28][INFO][trainer:227] - Initializing a new model from scratch
[2024-04-03 04:01:28][INFO][model:255] - number of parameters: 10.65M
[2024-04-03 04:01:28][INFO][model:445] - num decayed parameter tensors: 26, with 10,740,096 parameters
[2024-04-03 04:01:28][INFO][model:449] - num non-decayed parameter tensors: 13, with 4,992 parameters
[2024-04-03 04:01:28][INFO][model:465] - using fused AdamW: True
[2024-04-03 04:01:28][CRITICAL][trainer:296] - "devid='cuda:0'"
[2024-04-03 04:01:31][INFO][trainer:333] - • self.model=GPT(
  (transformer): ModuleDict(
    (wte): Embedding(65, 384)
    (wpe): Embedding(256, 384)
    (drop): Dropout(p=0.2, inplace=False)
    (h): ModuleList(
      (0-5): 6 x Block(
        (ln_1): LayerNorm()
        (attn): CausalSelfAttention(
          (c_attn): Linear(in_features=384, out_features=1152, bias=False)
          (c_proj): Linear(in_features=384, out_features=384, bias=False)
          (attn_dropout): Dropout(p=0.2, inplace=False)
          (resid_dropout): Dropout(p=0.2, inplace=False)
        )
        (ln_2): LayerNorm()
        (mlp): MLP(
          (c_fc): Linear(in_features=384, out_features=1536, bias=False)
          (act_fn): GELU(approximate='none')
          (c_proj): Linear(in_features=1536, out_features=384, bias=False)
          (dropout): Dropout(p=0.2, inplace=False)
        )
      )
    )
    (ln_f): LayerNorm()
  )
  (lm_head): Linear(in_features=384, out_features=65, bias=False)
)
[2024-04-03 04:01:31][INFO][trainer:334] - • self.grad_scaler=<torch.cuda.amp.grad_scaler.GradScaler object at 0x1492c97947f0>
[2024-04-03 04:01:31][INFO][trainer:769] - Startup time: 7.5244
[2024-04-03 04:01:31][INFO][trainer:769] - Startup time: 7.6396
[2024-04-03 04:01:31][INFO][trainer:769] - Startup time: 7.5326
[2024-04-03 04:01:31][INFO][trainer:769] - Startup time: 7.5334
[2024-04-03 04:01:31][INFO][trainer:335] - • self.model_engine=DistributedDataParallel(
  (module): GPT(
    (transformer): ModuleDict(
      (wte): Embedding(65, 384)
      (wpe): Embedding(256, 384)
      (drop): Dropout(p=0.2, inplace=False)
      (h): ModuleList(
        (0-5): 6 x Block(
          (ln_1): LayerNorm()
          (attn): CausalSelfAttention(
            (c_attn): Linear(in_features=384, out_features=1152, bias=False)
            (c_proj): Linear(in_features=384, out_features=384, bias=False)
            (attn_dropout): Dropout(p=0.2, inplace=False)
            (resid_dropout): Dropout(p=0.2, inplace=False)
          )
          (ln_2): LayerNorm()
          (mlp): MLP(
            (c_fc): Linear(in_features=384, out_features=1536, bias=False)
            (act_fn): GELU(approximate='none')
            (c_proj): Linear(in_features=1536, out_features=384, bias=False)
            (dropout): Dropout(p=0.2, inplace=False)
          )
        )
      )
      (ln_f): LayerNorm()
    )
    (lm_head): Linear(in_features=384, out_features=65, bias=False)
  )
)
[2024-04-03 04:01:31][INFO][trainer:336] - • self.optimizer=AdamW (
Parameter Group 0
    amsgrad: False
    betas: (0.9, 0.99)
    capturable: False
    differentiable: False
    eps: 1e-08
    foreach: None
    fused: True
    lr: 0.001
    maximize: False
    weight_decay: 0.1

Parameter Group 1
    amsgrad: False
    betas: (0.9, 0.99)
    capturable: False
…
